assets/models/LSTM.tflite (tflite, 146372 bytes, 8 tensors)

arith.constant4 f4 [1, 25]
00000000: 7306 483e 1dda 973e 9faf b2bd f5e2 82be
00000010: d959 903e ec8b 513d c115 bbbe dbf3 f2be
00000020: 10ce 23bc 4ca7 233d c0c0 6cbe f04b 70be
00000030: ad19 f33e 7b3d bcbe d51e 343e 6b90 e5be
00000040: 7319 9ebd 8775 143e e81a adbe 7619 0bbe
00000050: b6ec e03e 8a9c fc3d f4ed c4be 1091 86bd
00000060: d92f d73e
0.1953371 0.29658595 -0.08724903 -0.2556378 0.28193548 0.05115883 -0.36540034 -0.47451672
-0.00999786 0.03995447 -0.23120403 -0.23466468 0.47480527 -0.36765656 0.17589886 -0.44836745
-0.07719698 0.14497958 -0.3380959 -0.13583931 0.43930596 0.12334545 -0.38462794 -0.06570637
0.42028692

arith.constant5 f4 [25, 50]
00000000: 15e4 37be 4d81 8ebe 83ee 103d 701e 313e
00000010: 1291 aebd 62ff 6ebe c0b3 ef3c cf0b 0f3d
00000020: e1cb 48be 9a7c 88bc bb0d eebd b6e8 3bbd
00000030: 6633 853d 2be8 ff3d 3a07 f93c 259a 053c
00000040: 2cef 0fbe 585b 013d 1b73 f5bd 5583 b93c
00000050: 487c 1e3e eaf7 c23d a5b4 ef3d aa58 87be
00000060: 94bd 3ebe 3313 44be 8d75 79bd e7d2 0cbe
00000070: 60f6 373e 23c3 7cbd f63b 3cba 7848 aebd
00000080: dad5 483d 0aca 8dbe 816f 6e3e 1387 abbd
00000090: 6304 523e b4e2 1dbd 7a6f 103e e5b3 21bd
000000a0: a6b1 92bd 9da2 f43d 2fd7 773d e869 0e3e
000000b0: 282c 243e 9221 883e 3c23 b0bd befa 4abe
000000c0: 0aeb bdbd a4c0 2d3e 19e6 763d 3506 373e
000000d0: 122d 233d 00ed 833e 1a6d 60bd 10b9 2cbe
000000e0: 2816 5abe dcf4 10be abd2 5f3e afc4 c5bd
000000f0: 977c 803e 9fb7 053c b447 3d3e 4591 653e
00000100: a36a 74be 8150 203e d3ab 9e3c b27e 833e
00000110: 4a65 4b3e 8f13 7c3e ec54 38bd 6823 81be
00000120: 5af6 ae3d ed74 ae3d aa7a 8b3c 9a46 76be
00000130: 5f16 343e 37e7 973d dcad 3a3e 8133 523e
00000140: a108 85be 89c9 143e ea8b c63d e9a0 c4bd
00000150: d801 443e cae5 f63d ba71 2c3d 7248 2b3e
00000160: b35d 1abe 757c 44be 7071 213e a8c9 ecbd
00000170: e1d1 153e 1f3d f43c 81f8 12bd a5ff 483c
00000180: bdbd 713d 39ac 64bd 8324 eb3d c191 de3d
00000190: bca9 e63d f5d3 c9bd b805 04be 1f79 b6bd
000001a0: a180 863e 31cc 733e 3839 8bbe 3e91 62be
000001b0: 05fb 1c3e 683e e7bd 1980 64be 9f17 5ebe
000001c0: 3ac2 85bd 3ae6 453e d77a 7dbe cb3d 843e
000001d0: a33c c0bc 98dd 78be bb51 e4bd a657 dfbd
000001e0: 30a6 c83b c68a 93be 8534 4c3e 2014 8a3e
000001f0: 9ac2 743e 4b42 d9bd 0b82 c13d cb39 f9bd
00000200: dd09 003e f274 87be 132a 37be 8983 f5bc
00000210: 96ad 59be 1800 8f3e fe09 4abe e8ab 08be
00000220: 8870 b2bd a976 c9bd 3c89 8bbe 91a7 5d3c
00000230: 6fda bd3d 1fc2 94bd 9bf9 7d3e 43b3 bebd
00000240: 75ee 69be 3140 8ebe c0bb 85be 5891 1c3e
00000250: 1cd4 6e3e 9304 193e a6b7 743c 1100 243e
00000260: 1a4b 113e 12e3 363e b3cc 323c b4b9 763d
00000270: 811b fdbd cbb6 4b3e 3449 55bd 4491 04be
00000280: 99d5 42be db71 f8bc 8ab8 983e 86af 75be
00000290: 7a75 6c3e b246 523d 97fd 9a3d 3e9a 45bd
000002a0: 94cb b3bd 4229 4c3e 986b 18bd 7d8d 4f3d
000002b0: 8e9c c3bd 5578 f8bd 5b14 44be 5baf 65be
000002c0: 2464 f73d e4cd e7bc 08cb 053e 070b 353e
000002d0: 5876 84be e173 9f3d 225f 6c3c 0cea 60bd
000002e0: e483 19bd e3ab 30be 8172 0b3e ebaa 7ebe
000002f0: c1b2 833e 2c59 c2ba 3cd6 233e 0fad af3d
00000300: 0656 e83d b3bc cb3d 8709 55be 77b6 92be
00000310: 2d81 52be 9bb8 b1bc fd9a 10be 6f32 22bc
00000320: ee70 393e 9772 ce3d b548 4ebe 0077 3ebe
00000330: a5d8 69be 23e0 e83b 3dde 333e 898e 713e
00000340: 5b3a 2cbd c160 03be 6c22 85be bf3b 463e
00000350: ee00 35be d3c8 f2bd 298c fcbd 0d3d 0bbe
00000360: bd8a 0c3b d551 b43d 7354 e23d 6d41 2cbe
00000370: 5c6a 503e e990 673e bb79 42bd 4de8 e1bc
00000380: d799 22be 0852 7dbe 309a 133c 471c 32be
00000390: bafb 673e 1bc6 023e b106 69be 585e b33d
000003a0: 80ae 8c3e 4979 e8bd 49e3 74be c5b7 353d
000003b0: 2c40 8cbd 371c 6f3e 0a54 a3bd eca7 d03c
000003c0: f8e7 55be a8ba 0abe 4622 413e c78f 50bd
000003d0: ca5a 5ebe 0e77 71be 8336 f43c 8fc5 29be
000003e0: 2254 a0bd 2ee1 183e 0536 043e 91d6 85be
000003f0: 1662 7cbe 5191 5cbe 8397 86bd 0adb 4e3e
-0.179581 -0.27833024 0.035383713 0.17296767 -0.08523764 -0.23339608 0.029260516 0.03492337
-0.19609024 -0.016660977 -0.11623713 -0.045876227 0.06503944 0.124954544 0.030398954 0.008154427
-0.1405608 0.031581253 -0.11984845 0.022645632 0.15477097 0.09519942 0.11704377 -0.26434833
-0.18627006 -0.19147949 -0.06090312 -0.13752328 0.17965078 -0.061709534 -0.0007180566 -0.08509916
0.04903207 -0.27693206 0.23284723 -0.08375373 0.20509486 -0.03854628 0.14105025 -0.0394782
-0.0716279 0.119450785 0.06050795 0.13907588 0.1603247 0.26588112 -0.086004704 -0.19822213
-0.09273346 0.16968018 0.060278032 0.17873462 0.039837904 0.25766754 -0.054791547 -0.1686747
-0.21297514 -0.14155906 0.21857707 -0.09656655 0.25095055 0.008161454 0.18484384 0.22418697
-0.23868804 0.1565571 0.019369042 0.25682598 0.19862857 0.24616836 -0.045002863 -0.25222325
0.085430816 0.085183956 0.017026264 -0.2405037 0.17586659 0.074171476 0.18230385 0.2052746
-0.25983146 0.14530005 0.09694655 -0.09601004 0.19141328 0.120555475 0.042100646 0.16726854
-0.15074806 -0.19188102 0.15765929 -0.115619004 0.14630844 0.029814301 -0.035881523 0.012267982
0.05901884 -0.055828307 0.114815734 0.10867644 0.11262843 -0.09854881 -0.12892807 -0.08909821
0.2627001 0.23808362 -0.27192092 -0.22125718 0.15330131 -0.112912 -0.2231449 -0.21688698
-0.065311864 0.19326106 -0.24753891 0.25828394 -0.023466414 -0.24303281 -0.11148401 -0.109053895
0.0061233267 -0.28816813 0.1994191 0.2696848 0.2390236 -0.106083475 0.09448632 -0.12169226
0.12503763 -0.2645641 -0.17887144 -0.029969947 -0.21257624 0.2792976 -0.19730374 -0.13346827
-0.0871287 -0.09837086 -0.2725314 0.0135287205 0.092701785 -0.07263588 0.24802248 -0.09311535
-0.2284487 -0.2778335 -0.26119804 0.15289819 0.23323101 0.14943151 0.014936363 0.1601565
0.14188805 0.17860058 0.010913062 0.060235694 -0.123587616 0.19893949 -0.052071765 -0.1294604
-0.19026794 -0.030327728 0.29828292 -0.23992738 0.23091689 0.05133695 0.075679 -0.0482428
-0.08779064 0.19937614 -0.037211984 0.050672043 -0.09551345 -0.121323265 -0.1914839 -0.22430174
0.12079647 -0.028296418 0.13065732 0.17679988 -0.2587154 0.07785774 0.014426978 -0.054910704
-0.037479296 -0.1725307 0.13617899 -0.24869888 0.25722316 -0.0014827601 0.15999693 0.0857793
0.11344533 0.09948101 -0.20804416 -0.28654835 -0.20557089 -0.021694472 -0.14121623 -0.00989972
0.18109486 0.1008045 -0.20144923 -0.18600082 -0.2283655 0.0071067973 0.17565246 0.23589529
-0.04204784 -0.12829877 -0.26002824 0.19358729 -0.17676136 -0.118547104 -0.12331421 -0.13597508
0.0021445 0.08804671 0.11051264 -0.16821833 0.20353073 0.22613873 -0.047479372 -0.02757659
-0.15878998 -0.24738324 0.009008929 -0.173936 0.2265462 0.12770884 -0.22756459 0.08758229
0.27476883 -0.11351258 -0.23914827 0.04436471 -0.06848177 0.23350607 -0.079750136 0.025470696
-0.2088927 -0.13547766 0.1886073 -0.050918367 -0.21714321 -0.23580572 0.02981115 -0.16579269
-0.07828547 0.14929649 0.12911232 -0.26140264 -0.24646792 -0.21539809 -0.06571867 0.20200744

arith.constant17 f4 [200, 1]
00000000: 4c23 a53d 6e68 b33d 76d8 113e 5b7d 80bd
00000010: db2a 953c 23a2 47bd 7790 84bd d09a 2a3e
00000020: cd7e df3d 1576 c23a b639 c33d 58cc 5a3c
00000030: 1ebe 12be 0552 483d e8a3 023d 2e17 8b3c
00000040: 7eeb 103e 0054 133e 3356 3b3c adde 063e
00000050: e0bf d93d 2486 9abd 35dd 223e 80e8 7fbd
00000060: f9ce 6abd 2b50 123e 09fb c3bd 8f56 453d
00000070: 3832 43bd f44e 32bd e334 2cbe 30aa c2bd
00000080: 184e 3cbe c721 cdbc f8f6 c83d 7bd8 26be
00000090: 8c91 5b3d 8682 7138 615a 9ebd e1d7 103e
000000a0: 26dc 09be 4e46 263e ba12 d8bd 935e 9dbc
000000b0: c541 d8bc d8ea 213d 0d1b b23d 9782 f33d
000000c0: ba33 e9bd b3b0 0f3e 83f1 34bd 4086 343e
000000d0: 6646 083e 74a7 26bc 6e82 1c3e 02b8 8e3d
000000e0: e0c3 863c 5871 a2bd cb41 acbd 0c7c 00bd
000000f0: 565b 203e bad9 bfbd 2a3f cf3c fc5f 133e
00000100: 6e0f cabd 2ffa 733c 7a9f ac3d d032 cebd
00000110: b7de 023e eb95 763d 7e21 fcbd ffb8 b83d
00000120: d050 c3bc 49f9 d33d f9c3 a0bd 57a4 d0bd
00000130: 9def e83d b321 36be da46 2b3e 5102 0f3e
00000140: db23 3bbe 9990 5c3d 0a34 f4ba 8adf e3bd
00000150: 8ed9 ea3d 1997 9b3c 5c57 1abe 4416 17be
00000160: 13df a9bd 67e1 253e 2763 11be 8bde 063d
00000170: 47a9 233e 35f2 073e 2f47 833d 5133 7fbd
00000180: fbe2 f23d 92b1 a13c 574f c4bd d528 ffbd
00000190: f6cb 963d 9e1c f7bd c8d9 8d3d 2087 33bd
000001a0: 4826 253e 9684 0bbe 9c6c 5ebb f921 503d
000001b0: ce3f 3cbe ef23 ad3d c338 64bc 430a e0bd
000001c0: 0550 013e a67d c8bd a37f 063e 5025 3c3d
000001d0: 4c24 c4bc f764 e73a cc3a d93d 9c71 cd3d
000001e0: e251 25be f720 9a3d ec95 eebc a8be ecbc
000001f0: f4f7 40bd 6936 a7bd ade9 55bc 9abf 513d
00000200: c094 593d 684e 01bd 26f2 b5bd fd5a 13be
00000210: 3d89 9a3c e074 cb3c f70c babc d24a 28bc
00000220: 5439 1e3e 7a18 d03d 6ccc febd 1c5e be3b
00000230: 9255 9dbd 6eed 10be a208 803d 79b6 963d
00000240: d417 9dbd 7d5d a0bd 6652 173e 05d2 193d
00000250: 41f2 0abe 564d 19bd d7c8 403c 71ce 59bd
00000260: c401 fcbd e9c8 2fbe 192c 10be 1904 223e
00000270: d586 b83d f745 e6bd d430 b53c bfe8 2f3d
00000280: ce48 26be 64b8 b2bd 3750 1fbe ad40 383d
00000290: 7e7f 093d a815 b73c 0659 113e f40a 833d
000002a0: 46c3 973c 5e66 09bd de29 9abc 6789 07be
000002b0: 2098 cbbd c79c dabd 5eb5 2f3d 944b 533c
000002c0: 156a 45bd 7242 77be 7c5e ce3d c059 2e3e
000002d0: 04be 023d 15e9 d5bd bd9a d83c 7304 adbc
000002e0: 31b1 c83d 70e9 643d 206f 2cbd 669e c8bd
000002f0: f89c 94bd f612 f0bd bb84 d13c f6b4 e1bc
00000300: 9234 c53c 85a4 b93d 7ee3 373a a3f3 edbd
00000310: b39a 583c e00e 06bd fa07 013e 5f9c 96bd
0.08063373 0.08760153 0.1424273 -0.0627391 0.018208912 -0.04873861 -0.06472867 0.16660619
0.10912857 0.0014836217 0.09532492 0.013354383 -0.14330336 0.048906345 0.031894594 0.016978826
0.14152333 0.14387512 0.011434126 0.13170882 0.106323004 -0.075451165 0.15904696 -0.06247759
-0.05732629 0.14288394 -0.095693655 0.04817825 -0.047655314 -0.043532327 -0.1681705 -0.09505117
-0.18389165 -0.02504052 0.098127306 -0.16293518 0.0536056 5.7580437e-05 -0.07732082 0.14144851
-0.13462886 0.16237757 -0.10550447 -0.019210136 -0.026398549 0.039530605 0.08696566 0.118901424
-0.11386819 0.14032249 -0.044175636 0.17629337 0.13308105 -0.01017176 0.1528413 0.069686905
0.016450822 -0.07931775 -0.084109865 -0.0313683 0.15659842 -0.093677 0.025298674 0.14392084
-0.09866224 0.014891191 0.08428855 -0.100682855 0.12780271 0.060201567 -0.12311076 0.0901966
-0.023842245 0.10350282 -0.07849879 -0.10187595 0.113738276 -0.17786293 0.16726246 0.13965727
-0.18275397 0.053848837 -0.0018631232 -0.11126621 0.114672765 0.018992947 -0.15072387 -0.14754587
-0.08294501 0.16199265 -0.1419798 0.032927077 0.15982543 0.13275988 0.064100616 -0.0623048
0.11859699 0.019737992 -0.095854454 -0.1245896 0.07363121 -0.12066005 0.06926304 -0.043830037
0.16127884 -0.13624796 -0.0033939248 0.05081365 -0.18383715 0.084541194 -0.013929549 -0.10939457
0.12628181 -0.097895905 0.13134627 0.04593402 -0.023943089 0.0017653991 0.10606918 0.10031435
-0.16144517 0.07525819 -0.029124223 -0.028899506 -0.047111467 -0.08164675 -0.013056201 0.051208116
0.053120375 -0.031568915 -0.08884077 -0.14390178 0.018864268 0.024836004 -0.02271126 -0.010271745
0.15451556 0.101609185 -0.12441334 0.0058095586 -0.07682337 -0.14153072 0.062516466 0.07359023
-0.076705605 -0.078303315 0.14777526 0.037553806 -0.13568975 -0.03742727 0.011766634 -0.053175393
-0.12305024 -0.17166485 -0.14079322 0.15821876 0.09010092 -0.112438135 0.02211801 0.042946573
-0.1623871 -0.08726576 -0.15557943 0.044983555 0.03356885 0.022349194 0.14194116 0.063985735
0.01852573 -0.03354489 -0.018818792 -0.13236009 -0.09941125 -0.10674434 0.042897575 0.012896437
-0.04819687 -0.2414644 0.10076615 0.17026424 0.031919494 -0.104448475 0.026440972 -0.021120286
0.097994216 0.055886686 -0.042098165 -0.09795837 -0.07256502 -0.117223665 0.025575986 -0.02755211
0.024072919 0.09064583 0.0007014795 -0.11618736 0.013220477 -0.03272903 0.12600699 -0.07354044

arith.constant18 f4 [200, 50]
00000000: 6e98 9c3d 1d5c 30bd ffa5 22bd ff4b 903d
00000010: bf7e a8bd 1715 4dbc 3983 2a3c 0b3f d83d
00000020: 6ba1 febd a6e1 1e3d bc71 42bd 9cf3 9abd
00000030: 5cb4 eabd 35af 273e feae 0c3d 1a7c 503d
00000040: fa27 acbd 803d 053e 3011 66bd b032 9dbd
00000050: b81d 5fbd c686 9e3c 8648 8a3d 994c 103d
00000060: a375 b3bd 65d3 de3c 38b9 8a3b 3490 d33d
00000070: 195a b4bd 548c 3d3d f153 bebd b68b 683d
00000080: df16 f7bc 3b7a f0bd 28ef 0fbe bb8d a53c
00000090: 8350 273d 6eb6 f0bc 7856 75bd d155 433d
000000a0: 91f7 a03d c836 373d 4c8e bebd 9358 433d
000000b0: c888 26bc 0971 ed3a e1aa 02bd 16f1 b63d
000000c0: 8a78 bf3d 591d 1bbe 8c4d 983d 267a 0a3d
000000d0: 435d cebd b628 92bd 5ae6 643c e232 d53d
000000e0: 7e42 2c3d ebbc c2bd ee93 873d ec02 673d
000000f0: df97 753d 99ed 4dbd e257 aa3d 09f2 93bc
00000100: 6ac4 47bd ab3f 4abc e940 f4bc b99b 83bd
00000110: f24e 3a3d 0b27 6cbd fbed 5bbc addb c3bd
00000120: 118a b83d 3eb7 753d ba48 423d a413 5abd
00000130: a3a7 f5bd eb52 63bd 97b6 fa3b f326 133d
00000140: fab8 ebba b7f3 d53d 02a5 383e 761d 4e3c
00000150: 4192 af3d 2c56 913c ec22 0c3e 27b0 63bc
00000160: 0916 92bc fb2b 8b3d 1fae b73d 2458 98bd
00000170: 7d00 863d 622f 523d 49b0 ddbd 38c6 3a3c
00000180: 2cf6 d5bc 42aa 553d 335c 3a3d de9a fdbc
00000190: 7310 f1bc 68f8 e63b a337 2abc a381 283d
000001a0: 7d62 913d c9da 6e3d f65b c0bd 15af 333d
000001b0: 1c77 273e cd6b 7c3e 37b7 6fbc 66a9 94bd
000001c0: 8a55 2fbd 8e0b 83bc 9d7b 4ebd 9f9c 2b3b
000001d0: 9e7d 583d a000 8b3d c816 b23d 4766 843d
000001e0: e645 f03c 227e 293d 8211 963d 46db 3b3d
000001f0: d789 39be 39c0 94bc 95dc b43c eb2b e13c
00000200: 9904 5dbe 6fad 8f3b 2921 c2bd 6ab5 ca3d
00000210: 1ee5 743d 0640 17bd 58be a43b 4c5f 80bd
00000220: e379 16bd 9f30 3f3d c489 00bd 10ac 38bd
00000230: e74f 3d3d 74af 97bc e626 b8bd b75c 8a3d
00000240: 8c9a 6abd f2e7 58bc a681 d33c c4d8 eb3c
00000250: 55dd da3d a8b9 023d 4072 843d 987f 04bd
00000260: 0052 133e 9128 c2bd 11ce 133d 7e37 19be
00000270: bc43 513d 5bbb bf3a f7b2 0d3b 157a 95bd
00000280: 8fc4 7a3d c49b 59bd 8318 ee3d af6c 14bd
00000290: c8c0 65bd db5b 30bd 6685 b43c a34c 69bd
000002a0: c21d e2bd ae48 f0bc 24d1 d2bd cf58 93bd
000002b0: 2a2c bdbc cb03 8ebc 46af ce3d 5c0a 6e3d
000002c0: 4b1e a8bd 3df3 973d 55f0 70bd e7ce babd
000002d0: 12ff a33d 3dae 9fbb c83e 5fbd b645 833d
000002e0: 531a 643d fee7 b5bd 2f9d 013d e6eb 733d
000002f0: cba4 23bd 2abf d3bd 0a06 78bd 9eec 00be
00000300: 9e78 22ba 5c8b acbd 8ccd dc3d 10a3 f83c
00000310: f479 aabd e182 08be 2bba b73d b67c 873b
00000320: ce6e 0fbb c580 2a3c 9495 8fbb 86e0 7fbd
00000330: a26b 66bc 357e afbd 010b 3c3d 5fbd d9bc
00000340: 31bf 063d 39c3 4e3d b007 083c f952 83bd
00000350: 6f10 c73d 5189 ec3d 0fea ce3c 3ec1 ff3b
00000360: 31d3 37bd ef4b 78bc 7f9a dcbd fa26 943d
00000370: 17f6 60bd 5ade cabd 2baa 123c 81e9 29be
00000380: 183e ee3c f3b8 e03d d0e9 b43d 7e3c a0bb
00000390: 1c3b 3d3c 0ec7 993c 182a 0a3e 32e4 62bd
000003a0: 5732 043e beed d0bd fd78 da3d 1b8b 2cbc
000003b0: 3ffc 40bd 857c d53d 94b2 a83c ebdb b7bb
000003c0: 9fc4 d43b bd16 e8bc 2d3d 8abd 56a0 9b3c
000003d0: d054 8e3d 6da6 03bd 2a46 363d 08b5 b43d
000003e0: f1c0 1fbd a2e7 223e 601e a03c 32d0 91bd
000003f0: 9db6 9d3d 4a7f 973b 59f4 ce3c 2bfb 1d3d
0.07646261 -0.043056596 -0.039709087 0.07045745 -0.082273 -0.012517235 0.0104072625 0.105588995
-0.12433132 0.038789414 -0.047471747 -0.07565996 -0.11460182 0.1637543 0.034346573 0.050899602
-0.084060624 0.13011742 -0.056168735 -0.076756835 -0.0544717 0.019351374 0.06752114 0.0352293
-0.08762672 0.02720041 0.0042335056 0.10330239 -0.08806247 0.046276405 -0.09293354 0.056773864
-0.030162273 -0.117420636 -0.14056075 0.020209184 0.040848266 -0.029383864 -0.059896916 0.047689263
0.078597195 0.044729978 -0.09304485 0.047691893 -0.010164447 0.0018115352 -0.031901244 0.08932702
0.09349163 -0.15147914 0.07436666 0.033807896 -0.10076382 -0.07136671 0.013970936 0.10410096
0.0420556 -0.095086895 0.06620012 0.05639927 0.05995929 -0.05027542 0.083175436 -0.018059747
-0.0487713 -0.012344281 -0.029816108 -0.06426186 0.045485444 -0.05765442 -0.013423438 -0.09563384
0.09010709 0.059989206 0.04743264 -0.053241387 -0.11994865 -0.055499 0.007651161 0.035925817
-0.0017984204 0.104468755 0.18031695 0.012580266 0.085728176 0.017741285 0.13685197 -0.013896978
-0.017832773 0.06795498 0.08968758 -0.074386865 0.06543062 0.05131472 -0.10824639 0.011399798
-0.02611836 0.052164324 0.045498084 -0.030957635 -0.029426789 0.0070486553 -0.010389241 0.041139256
0.07098863 0.05831412 -0.0939254 0.043868143 0.1635403 0.24650498 -0.014631084 -0.07258873
-0.042806186 -0.01599672 -0.050410856 0.0026185883 0.052854173 0.067872286 0.086957514 0.0646482
0.029330205 0.041380055 0.07327558 0.045863412 -0.18118988 -0.018158065 0.022077838 0.027486762
-0.21583785 0.0043846886 -0.09478981 0.09897883 0.059788816 -0.036926292 0.0050275736 -0.062681764
-0.036737334 0.046677228 -0.031381384 -0.045085967 0.04621878 -0.01851628 -0.08991794 0.06755965
-0.057276294 -0.013238894 0.025818657 0.028789885 0.10686747 0.031915337 0.06467104 -0.032348245
0.1438675 -0.09480394 0.036085192 -0.14962575 0.051089987 0.001462798 0.0021621564 -0.07298676
0.06122261 -0.053127065 0.11625769 -0.03623646 -0.056092054 -0.04305635 0.022036266 -0.056957852
-0.11040832 -0.029331531 -0.10293797 -0.07194673 -0.023092348 -0.017335793 0.100920245 0.05811535
-0.08208903 0.07419441 -0.05882295 -0.09121495 0.08007635 -0.0048730657 -0.054503232 0.06409781
0.055689167 -0.088821396 0.031644043 0.059551142 -0.03995208 -0.10339196 -0.060552634 -0.12590262
-0.0006197783 -0.08425018 0.107813925 0.030351192 -0.08324042 -0.13331176 0.089710556 0.0041347397
-0.0021886113 0.010406678 -0.004381845 -0.06246998 -0.014063748 -0.08568994 0.04590893 -0.026579557
0.032897178 0.050479148 0.008302614 -0.0641231 0.09719931 0.115496285 0.025258092 0.0078050187
-0.044879142 -0.015154823 -0.10771655 0.07233997 -0.05492219 -0.099056914 0.008951704 -0.16592981
0.029082343 0.10972776 0.08833659 -0.0048900237 0.011549737 0.018771674 0.1349262 -0.055393405
0.12909828 -0.10201596 0.10667608 -0.010531212 -0.04711556 0.10424141 0.020592965 -0.005610933
0.0064931656 -0.028331155 -0.067499496 0.018997353 0.069497705 -0.032141138 0.044500507 0.088235915
-0.039002363 0.15908673 0.019545734 -0.07119788 0.07700846 0.0046233283 0.025262998 0.03856961

sequential_1/lstm_1/while/lstm_cell_1/add_1/ReadVariableOp f4 [200]
00000000: 200a 983a e521 603b d0e1 c3bc 8384 bebc
00000010: 758f 88bb 3f10 c4bb df52 c3bb c6f9 cd3b
00000020: 1c80 0a3c a831 543b 46eb 86bb d469 01bb
00000030: cafd 333a 9b96 9ebc 6f6d cfba 0f56 d0bb
00000040: 8ca8 b0bc 58e4 8fbb fe8a 37bc 8fd3 37bc
00000050: c760 8d3b 7ac5 1cbb 7be1 833b 8b9d 7a3b
00000060: 64d2 123b f07f 73bc 9afc 77bd 94bd d6bd
00000070: b762 a43b 80a1 363c 9e07 d4bc 557c 1bbc
00000080: b8f6 73bc 6953 e53b 4520 98bc bd66 24bc
00000090: c0eb cc3b 2fa0 22bc 638f 89bc 16ba 87bb
000000a0: afab 3d3c c69f 993b 6845 f73b 2bff 0cbd
000000b0: e356 7fbc 6aa2 0cbb 713a 21bc 7840 f8bc
000000c0: 4eb9 f1bb 6a7d 5abc 4244 7f3f 66c9 7f3f
000000d0: 27c0 783f fcdf 783f b250 7d3f a625 7d3f
000000e0: 5df5 7d3f bb5f 803f dc82 803f a199 7f3f
000000f0: d55b 7e3f b222 7d3f 7b10 7e3f 38d2 793f
00000100: f9e5 7d3f 7549 7d3f 5adb 793f f00f 7e3f
00000110: 07bb 7b3f 92e6 7a3f 4913 803f f336 7c3f
00000120: 3ee0 7f3f d658 7f3f 6c92 7f3f f790 7a3f
00000130: 7683 703f 22a1 663f 5c27 803f dec2 803f
00000140: 0001 783f fd71 7c3f 5935 7b3f ac49 803f
00000150: 30e3 7a3f 3ac8 7c3f 2459 7f3f 02e7 7c3f
00000160: b125 7b3f d171 7e3f a99d 803f 5c93 7f3f
00000170: 643d 803f 1641 763f 07bc 7a3f 48a5 7e3f
00000180: 9852 7c3f 74b7 773f 10bc 7c3f 61be 7b3f
00000190: 1b13 8abc 0ea1 a03c 4e91 37bc 18cb a03c
000001a0: c8e6 2abd ad1b 063d 13a3 42bc 47e7 2b3b
000001b0: 98c8 a83c 8d30 6cbc 4131 a73c a971 0b3d
000001c0: c485 14bd 85fe e03c b51e dfbc 3215 bbbc
000001d0: 49e2 383c 2fed d63b 7f0c 1cbd 72d5 0cbd
000001e0: be84 b53c 640c 13bc 122a b6bb 2e8b b83b
000001f0: 6641 9b3c 4f57 b83c 2b55 c53b ba64 a4bc
00000200: 8623 94bc 1bcc d23b b907 d93c f629 1e3d
00000210: 844e c1bc 7fc0 d5bb 1526 9f3c 6269 393a
00000220: acaf 28bd a07a fabc 5517 413d da66 49bc
00000230: d0f4 963b 7679 fe3c 9a00 76bc ed86 b2bc
00000240: 0977 1a3d b39d cf3c 82d0 1ebd 763a f0bc
00000250: 585d 283d 0321 953c 2548 b53a b6cf 7d3b
00000260: 8284 c0bc 8397 bebc b7fc 73bb 184b d5bb
00000270: 00fc c7bb 8e75 f93b 5f9c 113c 2580 4d3b
00000280: 0a86 72bb e2a4 d8ba 8bd8 453a ef05 9ebc
00000290: 1315 ccba e02b d0bb bd10 b2bc d033 8cbb
000002a0: 1c99 38bc 5b34 20bc 1188 a43b 4d35 cbba
000002b0: 3c3a ac3b 17ec 803b 30d2 053b 6d4b 6cbc
000002c0: 90d6 76bd 9166 d5bd 3c31 923b 3b25 263c
000002d0: de1b d3bc fb26 16bc f56d 6dbc 4610 d33b
000002e0: fd72 97bc c7cc 2ebc 7f1b df3b d8e6 21bc
000002f0: 5bac 88bc 579e 6dbb dfef 2b3c 9758 b73b
00000300: a7e7 e83b cb53 0dbd b2b9 7fbc 4746 eeba
00000310: 0af0 1ebc b991 f3bc 88e1 f7bb 44d8 5dbc
0.0011599697 0.003419989 -0.023911387 -0.023256546 -0.004167492 -0.005983382 -0.0059608067 0.006285879
0.008453395 0.003237823 -0.0041174022 -0.0019746916 0.00068661256 -0.019358924 -0.001582546 -0.0063579152
-0.021564744 -0.0043912344 -0.011202572 -0.011219873 0.0043145153 -0.0023921416 0.004024682 0.0038240876
0.0022403235 -0.014862046 -0.060543634 -0.10485378 0.0050166505 0.011146903 -0.025882538 -0.009490092
-0.014890365 0.0069984687 -0.018570075 -0.01003426 0.0062536895 -0.009925886 -0.016792005 -0.004142056
0.011576577 0.004688236 0.0075461157 -0.034423035 -0.01558468 -0.002145911 -0.009840594 -0.030304179
-0.0073768264 -0.013335565 0.9971353 0.99916685 0.971682 0.97216773 0.98951256 0.9888557
0.9920252 1.0029215 1.0039935 0.99843794 0.99358875 0.98881066 0.992439 0.97586393
0.99179035 0.9894021 0.9760033 0.9924307 0.98332256 0.9800807 1.0005885 0.98521346
0.9995154 0.9974493 0.998328 0.9787745 0.93950593 0.9008962 1.0012012 1.0059469
0.96876526 0.9861143 0.9812828 1.0022483 0.9800291 0.9874302 0.9974539 0.9878999
0.9810439 0.9939242 1.0048114 0.9983423 1.0018735 0.96193063 0.97943157 0.9947095
0.9856353 0.967643 0.9872446 0.9833737 -0.016854813 0.019608047 -0.011204077 0.019628093
-0.041723996 0.032741237 -0.0118797 0.0026230381 0.020603463 -0.014415872 0.020409228 0.03404394
-0.03626038 0.027465114 -0.027236322 -0.022837255 0.011284419 0.006559036 -0.038097855 -0.034383245
0.022158023 -0.008975122 -0.0055592144 0.005631826 0.018952083 0.02250257 0.0060221157 -0.020067561
-0.018083345 0.0064330227 0.02649294 0.038614236 -0.02359701 -0.0065231915 0.019427339 0.0007072893
-0.04118316 -0.03057605 0.04714139 -0.012292588 0.0046068206 0.031063776 -0.015014792 -0.021792853
0.037711177 0.025343752 -0.038773067 -0.029324751 0.041104645 0.018204218 0.0013830705 0.0038728542
-0.023500685 -0.023265606 -0.0037229487 -0.006509196 -0.006103039 0.0076128906 0.008887379 0.0031356898
-0.0037006163 -0.0016528631 0.0007547221 -0.019289939 -0.0015570245 -0.0063528866 -0.021736497 -0.0042786375
-0.011266973 -0.0097781075 0.005021103 -0.0015503556 0.0052559655 0.003934394 0.002041947 -0.01442228
-0.060263216 -0.104199536 0.0044614356 0.010140712 -0.025770124 -0.009164567 -0.014491548 0.006441149
-0.018487448 -0.01066894 0.0068086977 -0.009881698 -0.016683748 -0.0036257708 0.010494201 0.0055952775
0.0071076932 -0.03450374 -0.015608238 -0.0018178903 -0.009700784 -0.029732572 -0.007564727 -0.013540331

arith.constant22 f4 [200, 50]
00000000: a9a7 7e3d ff93 f1bd 0973 94bd b9d3 afbc
00000010: 7829 923c 240d 883d a67f 1e3d 9004 0abe
00000020: 2bd9 853d a6ff fbbd b542 053e aa59 f53d
00000030: 7ad5 eebc 969f dc3d 7f5c 8cbd c46d cd3d
00000040: 5f1f c03d e3f0 bd3c d848 f1bd b89d f2bd
00000050: dc08 1abe e5ad f2bd 7bd6 47bd 0207 00be
00000060: 8eda 1fbd 2765 e0bd 8ab1 6bbb 546b 123c
00000070: a236 09be 31d9 d73c 9149 9fbd 5ca8 f03d
00000080: b7d3 0a3c ad1d 94bc 1a7c db3d 138d f23d
00000090: ef87 e6bd f3a7 003d 3121 8ebd f21c d9bd
000000a0: c83b 0dbd ecfa 0f3e a793 a3bd 9097 923d
000000b0: 30b7 e33d 4ad2 f63d a546 163e 64f0 07bd
000000c0: fd75 89bd e03f 2abd 1a17 c83c cc29 ff3d
000000d0: f42a 63bd 2ebb 45bd 20e6 f23d 65fb a93d
000000e0: 0943 0fbe 129d 21bd eed6 94bc 40b5 f9bd
000000f0: b1b2 433c d2f5 fe3d 07e2 00be 9917 033c
00000100: c723 a23d e325 dabc bb70 163d e9b9 ac3d
00000110: 7f56 1f3d ab8e f83d 327d 61bb f4a9 623c
00000120: dca1 223d a385 b83d db7d e9bd f5a5 6fbd
00000130: 1dcf 553d bc79 ab3d 568d 0ebe 574a 083e
00000140: 5c66 e0bd e3fb 08bd 8d51 033d 8bf3 d8bc
00000150: 9a75 903d d321 cfbd 153a 213e 8930 13bc
00000160: e4f9 0f3e 0bec 773b 9c96 14bd e6b4 02be
00000170: 9148 d23d 7fc2 c83c 21b1 033e 8e3c a03d
00000180: 5a79 673c b4b2 003e 7c76 f23d dac6 86bb
00000190: 1c0e 35be 62b9 f7bd ba4e f13a fb8d 79bd
000001a0: 48b5 e2ba 5ecb 403d cc7f 2b3d 08f3 963d
000001b0: 92b8 01be c071 0fbe 19ed 85bc 6ce9 4fbd
000001c0: 5848 aa3d edf3 bc3d 8fb2 2dbd b8e4 fb3d
000001d0: b202 493d f85a 14bd 9349 ad3d 8994 e23d
000001e0: 7f8d 7b3d d240 d43d f25f 813d 4486 61bd
000001f0: ad94 d43c 0a90 aabc d3b0 2e3b 4c2c f73b
00000200: b1bd a9bd 7c42 023e 2889 b1bd c457 1c3d
00000210: 6de8 353c 9abf 873d e026 823d 6068 cb3d
00000220: c62f 26bd 24cb a33d d0ae a83d 260f 063e
00000230: 737d c4bd 2404 36bd 70f0 fabd 3c96 8d3d
00000240: 6428 283e 719a 00bd ce3e ffbd cb4e 653d
00000250: abe2 8fbc e385 fabd 0bb2 99bd 1999 db3d
00000260: beca 8fbd 994c 9abd 8fcb 533d bd49 853d
00000270: ee4f 063e 7221 9b3d c759 c93d 874f 903d
00000280: 2019 11bd efaf 073e b6e3 aebc 0a97 df3d
00000290: 37df 6d3c 73b0 9f3d cf79 58bb 7fe1 823b
000002a0: da10 09be c06c 05be 17af bc3d 85eb 0d3e
000002b0: 2cb6 8bbd 592c dc3d aed7 b63d 4e03 0bbe
000002c0: 070f c03d e44d 95bd 9a3f e73c e66e 1a3e
000002d0: b4c8 9dbd d7ea e23d 1411 51bd 3037 10bd
000002e0: e38c 0cbe f36f 023e b5f4 103e a858 febd
000002f0: 8fbe 49bd 45d1 083e 7f28 66bc 93e9 263d
00000300: 9766 d3bd 4419 893d 5665 d73d faca 1a3e
00000310: 39db 0bbe 0867 04bd 7777 e83d 068d cd3d
00000320: 3c5b 15be 4d6f d33d 845f 173e 6158 09be
00000330: 8420 81bd 3d18 1dbd ea3f 8ebc 48bb 883d
00000340: 5ddc 0ebe 0656 8fbd 60bc bf3d 08d3 093e
00000350: 3e16 2dbd f326 f2bc e273 163e 2fa4 13be
00000360: 50e4 a63d bad9 fbbd edf5 06be ef98 a43d
00000370: dc2c c8bd 0e99 263d 589e eebd ce98 9b3d
00000380: 8b79 50bd 0d6b 563d 3af9 e0bc afc6 d2bd
00000390: 99ea 653d 36c9 7cbc 1b1b 043e 4853 07be
000003a0: 604c fabd 28f1 bfbd 1fe7 0b3e ad83 e43c
000003b0: 0ed1 1abe 1f78 a9bd 975c 00bc 7f0f 45bd
000003c0: af66 06be 52e1 b4bd bef9 083e 5cf3 e5bd
000003d0: 4e0d 09be 1c96 c93d a74d 0a3e 85d9 8fbc
000003e0: dc85 0a3e 0cbd 9c3b f32d e03d 694f f1ba
000003f0: be1e b23c 29ff c13b 3ec5 913c 74a2 1d3e
0.062171612 -0.11795806 -0.07248504 -0.021463262 0.01784204 0.066431314 0.038695954 -0.13478303
0.06535562 -0.123046204 0.13013728 0.11979993 -0.029154528 0.10772626 -0.0685358 0.10030702
0.093809836 0.023186153 -0.11781472 -0.11846489 -0.15042442 -0.11849574 -0.04878853 -0.12502673
-0.03902679 -0.10956793 -0.0035963976 0.008936722 -0.13399747 0.026348682 -0.077777036 0.11750862
0.008473328 -0.018080557 0.1071703 0.11843314 -0.11256396 0.03141017 -0.069399245 -0.10601224
-0.03448084 0.14060563 -0.07987147 0.071578145 0.111189246 0.12051828 0.14675386 -0.03318824
-0.067119576 -0.041564822 0.024425078 0.12459144 -0.055460885 -0.04827421 0.11860299 0.08299903
-0.13990416 -0.039456435 -0.018168893 -0.12192774 0.011944459 0.1244923 -0.12586223 0.008001232
0.0791698 -0.026629394 0.036728602 0.08433897 0.03890085 0.12136587 -0.0034406898 0.013834465
0.039705142 0.09009864 -0.11400958 -0.05850788 0.05219947 0.08372828 -0.13921103 0.13309608
-0.109570235 -0.033443343 0.032060195 -0.026483318 0.07053681 -0.10113873 0.15744813 -0.00898374
0.1406017 0.0037829902 -0.036276445 -0.1276432 0.10267747 0.024506805 0.12860538 0.0782405
0.014128054 0.1256817 0.11839005 -0.0041130604 -0.17681164 -0.12095906 0.0018410303 -0.06092642
-0.0017296458 0.047068946 0.041869923 0.07370573 -0.12668064 -0.14008236 -0.016348409 -0.050759718
0.0831458 0.09226213 -0.042406615 0.12299484 0.049074836 -0.036219567 0.08461299 0.11063487
0.061414238 0.10363926 0.06317128 -0.055059686 0.0259498 -0.020820636 0.0026655688 0.0075431224
-0.08288134 0.12720674 -0.086687386 0.038169637 0.011102778 0.06628342 0.06355071 0.09932017
-0.040572904 0.079977304 0.08236468 0.13091716 -0.0959424 -0.044437543 -0.12252891 0.069134206
0.16421658 -0.031397287 -0.12463151 0.055983346 -0.017564138 -0.12232568 -0.07504662 0.107225604
-0.07021092 -0.07534141 0.0517078 0.06508205 0.13116428 0.075747386 0.09831577 0.07046419
-0.03542435 0.13250707 -0.021348815 0.1091748 0.014518551 0.07797327 -0.0033031588 0.0039941664
-0.13385335 -0.13029766 0.09213083 0.13859375 -0.06821856 0.10750646 0.089278564 -0.1357548
0.09377866 -0.07290247 0.02822857 0.15081367 -0.07704297 0.110799484 -0.051041678 -0.03520888
-0.13725619 0.12738018 0.14155848 -0.124192536 -0.049253996 0.1336108 -0.014047741 0.040750097
-0.10322302 0.06694272 0.10517375 0.15116492 -0.13657846 -0.03232482 0.11350911 0.10036664
-0.14585584 0.10323963 0.1478253 -0.1341262 -0.0630503 -0.038353194 -0.017364461 0.06676346
-0.1395125 -0.069988295 0.093621016 0.13459408 -0.04225754 -0.029559588 0.14692643 -0.144181
0.08149016 -0.122973874 -0.1317975 0.08036982 -0.09774181 0.040673308 -0.116512954 0.075975046
-0.050897162 0.052348185 -0.02746259 -0.10291802 0.056131933 -0.015428832 0.12900965 -0.13215363
-0.122215986 -0.09372169 0.13662384 0.02789482 -0.1511881 -0.082748644 -0.007834575 -0.04811048
-0.13125108 -0.08832039 0.13376519 -0.11228058 -0.13383982 0.09843084 0.13506185 -0.017559776
0.13527626 0.0047832783 0.10946264 -0.0018410507 0.021743175 0.00592031 0.017794248 0.15394002

arith.constant23 f4 [200, 50]
00000000: e18f 91bd 6b54 663c d4e5 00bc fd92 23be
00000010: 748b a33c 9ccd a6bd 7fc9 8b3c 4697 ccbd
00000020: 7243 2ebd ae87 0dbd ee08 c33d 0c6f 9abc
00000030: 1518 debb 7059 e3bc 7e2f 09bd 2aaa 9f3c
00000040: 830d 8a3d 52e2 83bd 9b57 dcbd ef69 fc3d
00000050: 2d2b 833d bd5b 9cbc 5777 2e3d 9397 4cbc
00000060: 1e7e a0bc 7330 603d 367c 673d 10e0 c73d
00000070: 128c 0c3d 4f4f 17bd b21f 13bb e953 ba3d
00000080: 212e a2bc d06b ee3d b39e 24bc 38a0 7f3c
00000090: 2608 74bd 6e61 30bc 0d64 a9bd 557b fdbc
000000a0: 6eda a93d 683d 873d b950 4f3c ab86 f7bd
000000b0: 90fb 00bd 02e8 01be 8859 adbc 2377 e73d
000000c0: b6b8 b8bd e4a8 32bd ebea 68bd edc8 95bc
000000d0: e5b4 db3c cc96 e5bd 0440 c6bd 478c 82bd
000000e0: b960 983d 1269 843b 4736 723d 0980 01bd
000000f0: 256d 873c f365 7ebd 939b 84bd 834f 9a3d
00000100: cba1 c03d 1cac 6cbd 2eb1 b1bd 7288 103c
00000110: 5312 ebbc 9c8c 093d 9120 0e3e a99a 2e3d
00000120: 72ac 823c c2c7 bd3c 7294 733d 6f89 023e
00000130: 6285 cd3d c2dd 5e3c fe4d ce3d 9f04 b0bb
00000140: 72bd e3bc 608d b7bc ae6f 9d3d c43a 9e3d
00000150: 6392 293d dc65 893d 2c0d 74bd 7ff6 703d
00000160: 4b9a 1fbd 6052 9a3d 46d3 f53b 1ff4 9abc
00000170: 9f11 a8bd f8a3 ed3d 7a0c 44bd 3023 e33c
00000180: 2b20 333c 94ec 68bd 9df5 a93d 61d0 fdbd
00000190: 102d 8638 e8fa 0d3e 20c7 31bd b790 2c3d
000001a0: c6a1 7b3d 5bfc e7bd e7fc 193d 9136 d23d
000001b0: f8ee 223d f1f5 6cbd a0be ca3d 3724 0d3d
000001c0: 9d58 143d 7d23 fa3c 4673 62bd 6138 a83d
000001d0: 6ea5 793d 1cac a5bc c318 293e a1cd 2bbd
000001e0: a3db d0bd de7e c33c 3e2b 353d f075 15bb
000001f0: 3fb0 df3c 5ebb d33d 98af 833d 340b 00be
00000200: 9aec 71bd 0fa1 babb 1221 42bd 4a3e 4c3d
00000210: 3353 02bd 323c 4f3d 5841 a1b9 b2db 3abd
00000220: b55d dabd a258 d6bd 3b31 dfbc c96f 4ebc
00000230: 2def d23c 7604 4fbd 3268 853a 55a0 d63c
00000240: e72e c5b9 e415 76bd eab7 52bd 775c 783c
00000250: dea2 ddbc 2408 823d 2053 2ebd 2f97 5b3c
00000260: 72e1 bbbc e23e 273e 81b3 de3d 2282 083e
00000270: dfd3 ad3d 7cdf 67bd a4e0 083e 0710 cbbd
00000280: 55ec febb b63a a8bd dab3 723d 028b 97bd
00000290: 8664 993d cbbf 183d fb4e 833d 777f e3bd
000002a0: 24ff 603d afc8 b43c 8172 91bd 6b22 fc3d
000002b0: e0d2 5dbd 43c3 8c3c d41c b93d abff a0b9
000002c0: 3447 e43c c185 52bd b9c6 c63c 97f3 8abc
000002d0: dfec 88bd 295c 983d 53bd e43d 5301 503d
000002e0: e8a6 0fbd fe4b abbd 2ae7 a03d 4310 693e
000002f0: b973 05be fc52 71bd e3fe 0c3e ad1a df3d
00000300: 3bc0 c83d 6b85 b0bc 78f1 dfbc fcfe c7bc
00000310: 531f 8fbd d0be 98bd d6ef 493d 035d bb3d
00000320: 8f3a ef3b 4cc7 593d 6ca2 0e3d 2658 823c
00000330: 3c24 cfbc 328d 0d3d a840 31bc 0ff7 afbd
00000340: 0f26 b5bc cd7a 2c3b dc65 98bd 2987 f83d
00000350: 1473 26bc 00a3 85b8 5f22 4abd 69c0 0e3d
00000360: c15b 0cbe 00e3 853d ff56 d4bd 0fac b33c
00000370: 0a37 263d 69f2 ad3a da63 c03d 4732 823b
00000380: 1247 f3bb 970b c13b b008 9fbd bf91 3fba
00000390: d674 9e3d 7aeb 373d 6914 ebbd 98c1 913c
000003a0: 5457 873c 4bc0 34bd 030e f6bc 788f 973d
000003b0: a7ba 9f3d 2fee 043c 28d4 d53d 91b9 99bd
000003c0: ea08 c2bc d1b2 e5bc ac79 fb3b 14c3 2ebe
000003d0: d20d 5e3d 7fd1 103e c21c ea3c 144b be3d
000003e0: 1ae8 9e3d cb06 a8bd 1d68 92bd 8c76 0d3e
000003f0: 197e 2c3d feb3 893d 982f bebc 92b4 423d
-0.07107521 0.014058213 -0.007867295 -0.1597404 0.019963957 -0.081446856 0.017063854 -0.099897906
-0.04254479 -0.034553222 0.095231876 -0.01885178 -0.006777773 -0.027752608 -0.033492558 0.01949032
0.067408584 -0.064396515 -0.10758897 0.12324893 0.064047195 -0.019086713 0.04259428 -0.01248731
-0.019591387 0.054733705 0.05651494 0.097595334 0.03431327 -0.03694087 -0.0022449312 0.09098036
-0.019797387 0.11641657 -0.0100476025 0.015602164 -0.059578083 -0.010765417 -0.08271036 -0.030942598
0.08293615 0.06603509 0.012653523 -0.12086233 -0.03148991 -0.1268616 -0.021160856 0.113020204
-0.09019606 -0.043618098 -0.05686466 -0.018284285 0.026819656 -0.11210403 -0.09680179 -0.06374412
0.074403234 0.0040408457 0.059133794 -0.031616244 0.016531536 -0.062108945 -0.06474986 0.07534697
0.094058596 -0.057781324 -0.086763725 0.008821594 -0.028695261 0.03358136 0.1387961 0.042627964
0.015951369 0.023166541 0.05946774 0.1274774 0.100352064 0.013602676 0.100734696 -0.0053716446
-0.027800296 -0.02240628 0.07687317 0.077260524 0.04139937 0.06708881 -0.059582874 0.058828827
-0.038965505 0.07535243 0.0075019924 -0.018915234 -0.08206486 0.1160354 -0.04786346 0.02772674
0.010932962 -0.056866243 0.082988 -0.12393261 6.3980115e-05 0.13865244 -0.04340279 0.0421302
0.061433576 -0.1132743 0.037594702 0.10264314 0.03977868 -0.057851736 0.0989964 0.034458365
0.03621732 0.0305345 -0.055285715 0.082138784 0.06094878 -0.02022367 0.16513352 -0.04194415
-0.101981424 0.023864206 0.044230692 -0.0022805892 0.02730572 0.10338472 0.06429976 -0.12504274
-0.05906353 -0.005695469 -0.04739482 0.04986409 -0.031817626 0.050594516 -0.00030756998 -0.045619674
-0.106624044 -0.10466124 -0.027245155 -0.012599894 0.025748814 -0.050541364 0.0010178147 0.0261995
-0.00037609713 -0.06007947 -0.051444925 0.015158764 -0.0270552 0.06349209 -0.042559743 0.013402744
-0.02293465 0.16332582 0.108740814 0.13330892 0.08487677 -0.056609616 0.13366944 -0.09915166
-0.007779638 -0.08214323 0.05925355 -0.073995605 0.074898764 0.037292283 0.06411549 -0.11108296
0.05493082 0.02206835 -0.07101918 0.12311252 -0.054156184 0.017182952 0.09038702 -0.00030708066
0.027865984 -0.05139709 0.02426468 -0.016961856 -0.066858046 0.07439453 0.11168923 0.050782513
-0.035071284 -0.08364104 0.07856591 0.2276011 -0.13032426 -0.05891703 0.13769107 0.1089376
0.0980229 -0.021547994 -0.027336821 -0.024413578 -0.069883965 -0.074582696 0.04930099 0.091486
0.007300682 0.05316858 0.034822866 0.015911173 -0.025285833 0.034558482 -0.010818638 -0.085920446
-0.022112874 0.0026318312 -0.07441303 0.12135155 -0.010159273 -6.372295e-05 -0.049349185 0.034851465
-0.13706876 0.065374374 -0.10368156 0.02193263 0.040579833 0.0013271096 0.09394045 0.0039732787
-0.0074242437 0.005891274 -0.07765329 -0.00073077896 0.077371284 0.044902302 -0.11478502 0.017792508
0.016521133 -0.044128697 -0.030035978 0.07400411 0.07799273 0.008113428 0.10440856 -0.07506097
-0.023685891 -0.028039368 0.0076744165 -0.17066604 0.0542124 0.14142416 0.028578166 0.09291664
0.077591136 -0.08204421 -0.07148764 0.13814753 0.042112444 0.06723784 -0.023216054 0.047535487

sequential_1/lstm_1_2/while/lstm_cell_1/add_1/ReadVariableOp f4 [200]
00000000: be23 a8bb 6588 d6ba 099d c2bc 5b93 6fbc
00000010: 0e3e 4dbc 3d76 c1bc 3262 71bb fb24 e7bc
00000020: af73 73bb 2123 70bb 0241 fb3b 7008 bebb
00000030: 64f2 4abd a9b4 87bc f828 8abc 03fd 92bb
00000040: d0e0 68bc 2a8a 85bb be5b d8bc 9402 453b
00000050: 3bcd 0c3c 7fd0 50bd ae98 9fbc 7a8e 96bc
00000060: 95b3 abbb ec1f 25bc 7356 3fbd 5c05 103a
00000070: 0c45 403b 2c73 3fbc f7bc e83b 274b 85bc
00000080: 9294 e4bc 431b 193a 549c 84bd 47e7 13bc
00000090: eace 0d3c ecfd 55bc 34ed eebc 6479 c1bb
000000a0: fb69 53bc de77 acbc 8485 50bc 9c3c 083c
000000b0: 6d2d f93a 19c2 d8bc bacc 7dbc dd0f 08bd
000000c0: d126 6ebc a093 05bc 0252 7d3f e5bd 7e3f
000000d0: 70ff 783f cd25 7a3f 4a62 7b3f e5cb 793f
000000e0: e4a5 7e3f 4eaa 773f 6827 7e3f 17c8 7e3f
000000f0: 69b1 803f f18e 7c3f 7a36 743f 7e6f 7b3f
00000100: 1a1a 7c3f f2b3 7d3f caff 7c3f 7a97 7e3f
00000110: 5d1e 7a3f dfd7 7f3f aaad 803f 5624 723f
00000120: 0ec9 793f 5825 7a3f 6db5 7d3f e602 7e3f
00000130: f684 753f 3813 7f3f a3d0 7f3f ff87 7c3f
00000140: b38c 803f c11e 7c3f 6d5c 793f 8542 7f3f
00000150: 5083 6e3f f643 7c3f fdc8 803f 31f4 7c3f
00000160: 1f4d 793f a1f5 7d3f 2a7f 7c3f 665c 7b3f
00000170: 828a 7b3f d7a0 803f e9d9 7f3f d21a 783f
00000180: 2001 7c3f 0edd 753f 1c4c 7b3f 27a8 7f3f
00000190: dcbb 06bc b73b 03bb 2cb3 92bc 0e5d 743b
000001a0: 2881 08bb 5061 d23c ca84 4fbb 78bc a7bb
000001b0: fde2 9aba 4610 7bbb ca7e 083a 84b0 f43a
000001c0: 5725 9cba 76b1 5a3a 8a10 8bbc aac8 d2bb
000001d0: 1be3 2e3b 7114 4439 be84 86bb d52c 8fb9
000001e0: 6e68 443b 8ce8 3abc 5f74 46bb d3d8 32bb
000001f0: 539f abba 3fe8 03bc 023b 05bc 5a0f a5bb
00000200: 270b 73bb 690f 5f3c 0d3a 76bb 9839 793c
00000210: d0be dc3c 301c c839 bb18 523b 3cc6 bcbb
00000220: 39a4 baba ebba ef3c 10ef 0bbb f079 3e3b
00000230: 3058 caba bec2 443c 202e 483c 428c 04bc
00000240: e1ea 903b 3588 85bb 4736 a13b e188 573c
00000250: b8e1 56bb c3b0 90bb 6493 b3bb 70ee f8ba
00000260: 2abe c1bc f803 72bc e8a2 50bc 561e c4bc
00000270: 1d95 7fbb e2be e3bc 2a52 6dbb c88e 66bb
00000280: 340a ee3b 875a bebb 2e3f 48bd 038a 88bc
00000290: 8ba1 88bc febf a1bb bd26 6dbc 8041 a6bb
000002a0: 6515 d9bc 4650 533b 7204 0b3c 931b 51bd
000002b0: 169a 9dbc 9cde 99bc 836f aabb c1d4 21bc
000002c0: 3c39 41bd b068 233a dba0 453b 8b3c 37bc
000002d0: 0b4c e83b 90a9 83bc c935 e2bc 80eb 5539
000002e0: 4ef0 83bd 1562 0fbc e8fa 083c d365 55bc
000002f0: e9f4 eabc b035 b3bb cc96 55bc 8779 aabc
00000300: ff8f 52bc e9e4 053c da08 da3a 9902 d8bc
00000310: 0001 80bc 0b84 08bd ff06 6bbc 64c3 01bc
-0.005131214 -0.0016367553 -0.02375652 -0.014622535 -0.012527002 -0.02361595 -0.003683221 -0.028215876
-0.003714781 -0.0036642032 0.0076676616 -0.0057993457 -0.049547568 -0.016565638 -0.016865239 -0.0044857278
-0.014213756 -0.0040753083 -0.026410934 0.003006135 0.008593853 -0.050980087 -0.019481983 -0.018378485
-0.0052399137 -0.010078412 -0.046713304 0.00054939627 0.002933803 -0.011685174 0.0071026045 -0.016271187
-0.027902875 0.0005840549 -0.0647513 -0.009027309 0.008655289 -0.013061028 -0.029165842 -0.0059043635
-0.012903686 -0.02105325 -0.012727145 0.008315232 0.001901073 -0.02645974 -0.015490705 -0.033218253
-0.014535622 -0.008152872 0.9895326 0.99508506 0.97264767 0.9771393 0.9819685 0.97576743
0.9947188 0.9674424 0.9927888 0.9952406 1.0054141 0.9865561 0.95395625 0.98217
0.9847733 0.991027 0.98827803 0.99449885 0.9770258 0.9993877 1.0052998 0.94586694
0.9757241 0.9771323 0.9910496 0.9922317 0.9590601 0.996387 0.9992773 0.98645014
1.0042938 0.98484427 0.97406656 0.99710876 0.93169117 0.985412 1.0061337 0.98810107
0.973833 0.99202925 0.98631537 0.98187864 0.9825822 1.0049084 0.9994188 0.96915925
0.98439217 0.9604043 0.9816301 0.99865955 -0.0082235 -0.0020024606 -0.017907701 0.003728691
-0.0020828936 0.025681168 -0.0031664842 -0.005118903 -0.0011816915 -0.003830926 0.00052068813 0.0018668328
-0.0011912984 0.0008342484 -0.01697566 -0.0064326124 0.0026685658 0.00018699632 -0.0041051796 -0.00027308488
0.0029969472 -0.011407983 -0.0030281765 -0.0027289882 -0.0013093747 -0.008050977 -0.008131744 -0.0050372304
-0.0037085505 0.013614514 -0.0037571222 0.015211485 0.026946455 0.00038167974 0.0032058198 -0.005760936
-0.0014239616 0.029263934 -0.002135221 0.002906438 -0.0015437659 0.012009321 0.012218028 -0.008090081
0.004422531 -0.004075075 0.0049198004 0.013155193 -0.0032788347 -0.004415603 -0.005480217 -0.0018991958
-0.023650248 -0.014771454 -0.012734152 -0.023940247 -0.003899879 -0.027800981 -0.0036212304 -0.003518032
0.0072644 -0.0058091315 -0.048888378 -0.016667372 -0.016678592 -0.0049362173 -0.014474568 -0.005073726
-0.02649946 0.0032243892 0.008484947 -0.051051687 -0.019238513 -0.018782906 -0.0052012815 -0.009877385
-0.047173724 0.0006233556 0.0030155692 -0.011183868 0.007089143 -0.016072065 -0.027613537 0.00020400994
-0.06442319 -0.008751412 0.008360602 -0.013024765 -0.028681235 -0.0054690465 -0.013036441 -0.020809902
-0.012851714 0.008172252 0.0016634718 -0.026368426 -0.015625477 -0.03332905 -0.01434493 -0.00792012
